Chap5/PyTorch_Training_From_Scratch.pt (torch, 782214 bytes, 24 tensors)

classifier.0.weight f4 [32, 3, 3, 3]
000000 9e aa 51 bd 9b a6 31 3e 1f 9c d7 3d 2e e7 b4 bb
       -0.051188104 0.17348711 0.105278246 -0.005520723
000010 1f 71 26 be ce f7 df 3c e8 89 dd bd da 91 bd bd
       -0.1625409 0.027339842 -0.10817319 -0.092563346
000020 09 5c 3b bd e7 3e f7 bc b9 8e d5 3d 5f 0b 15 be
       -0.04574207 -0.030181361 0.10427613 -0.14555119
000030 6f 45 a6 3d 83 de be 3d 89 b6 33 bd f4 79 06 be
       0.08118712 0.093197845 -0.04387525 -0.13132459
000040 16 3d 9f bd 2f 9e 14 be 7c c3 af bd b8 2c d2 3c
       -0.07775323 -0.14513467 -0.085822076 0.02565609
000050 8d 87 50 bd 5c 85 a3 bd f9 c2 91 3d ad 8b 5c bd
       -0.05091052 -0.07984421 0.07117266 -0.053844143
000060 86 da 01 be 5c 33 22 3d 68 2e 8b 3c e3 b5 0d 3e
       -0.12681016 0.03959976 0.016989902 0.13838916
000070 7e 07 21 3e 86 65 24 be 41 75 a2 3c f8 b9 36 be
       0.15725514 -0.16054353 0.019831302 -0.17844379
000080 bc d5 91 3d fb ec e2 3d 9e 7b cf bd 9e 24 0e 3e
       0.07120845 0.11080357 -0.10131 0.13881156
000090 28 fa fd 3c a8 5b 31 3e b0 3b d2 bd f7 2c 9f bd
       0.031003073 0.1732012 -0.10265291 -0.07772248
0000a0 90 39 df bd c7 3e d2 3d 20 4d fc bd 42 d1 8b bd
       -0.10899651 0.1026588 -0.12319398 -0.06827022
0000b0 56 92 06 be 8d 13 23 be 04 10 0a 3e 82 fb 41 be
       -0.1314176 -0.15925427 0.13482672 -0.18943599
0000c0 6d 38 06 be 46 70 35 be 5b 99 9f bc 46 b1 fc bd
       -0.13107462 -0.1771861 -0.019482305 -0.123385
0000d0 69 84 97 bd cd 76 e8 3d aa 91 f8 3d 73 3e 04 3c
       -0.07398302 0.113507845 0.12137158 0.00807153
0000e0 f1 85 d1 bc 6c e5 51 3e 7e 02 15 3e 97 83 14 3e
       -0.025576564 0.20497674 0.14551732 0.14503323
0000f0 63 4b a8 bd fb 0b 16 be 3a 4f 47 3e 01 98 b5 3d
       -0.08217504 -0.14653008 0.19463816 0.08866883
000100 42 c2 2d be 84 9f 07 3e 03 bb 08 3d 3f 3e fa 3d
       -0.16968635 0.13244444 0.033381473 0.12218904
000110 2b 86 04 be 9e 78 2b 3e 4e c5 c8 3d 66 e6 89 3c
       -0.12941806 0.1674523 0.09803258 0.016833495
000120 ac 7f 0e bd fc 86 21 be 39 dd d2 3c ae 6d 37 bc
       -0.034789726 -0.15774149 0.025740253 -0.011195583
000130 cf de f3 bc 6a 6b 05 be f3 5f 0d 3d 72 48 e6 3d
       -0.02976933 -0.13029256 0.034515332 0.112442866
000140 34 0b f0 3d 19 d0 03 3e b5 ae 2c 3e 66 24 1d 3e
       0.11720887 0.12872352 0.1686352 0.15345916
000150 01 3f 2a 3e c3 f3 1c 3e 61 81 b9 3b 27 2b a9 bd
       0.16625597 0.15327363 0.005661175 -0.08260184
000160 39 69 11 3e 2a d7 94 3d c5 f5 fc 3c 47 00 17 be
       0.14200296 0.07267602 0.03087891 -0.147462
000170 87 10 04 3d 88 df 9d 3d 09 d4 29 bd 2e a8 0a 3e
       0.032242324 0.07708651 -0.041461978 0.13540718
000180 90 48 3c 3e 60 dc 3d bd a2 15 8f 3d cd 00 3c 3d
       0.18387055 -0.046352744 0.06986548 0.0458992
000190 ee 51 ef bd 98 4b 16 bc 2b 89 cb bd fc 4e 33 3e
       -0.11685549 -0.009173296 -0.09938272 0.17510599
0001a0 53 80 e5 bd 9d b6 0c be 17 86 bf bd 27 04 05 be
       -0.112061165 -0.13741536 -0.093517475 -0.12989865
0001b0 3d 66 bf bd ee 9d c2 3b 6f 50 bd 3d 37 fe 40 3d
       -0.09345672 0.005939237 0.09243857 0.04711744
0001c0 51 fd 8a 3d e0 de c1 bd 0b 81 26 bd 08 6c 22 3e
       0.067865975 -0.09466338 -0.04065041 0.15861523
0001d0 68 43 ac 3c 66 e7 09 be 21 d3 06 bd 7e fb 29 bd
       0.021028236 -0.13467178 -0.032916192 -0.041499607
0001e0 5a 6e a3 bc bc ff 83 3d e9 00 aa 3d 6f 79 24 be
       -0.01995008 0.06445262 0.08300955 -0.16061948
0001f0 93 a3 9b 3d 6d b1 3a bd d9 80 27 be c4 9f e8 3d
       0.07599559 -0.045579363 -0.16357745 0.11358598
000200 f1 e5 b1 3d 19 f8 12 3e ed 33 0e 3e 9f 54 23 3e
       0.08686436 0.14352454 0.13886996 0.15950249
000210 cc 30 fe bc 3c bb d4 3d 14 be c1 bd 23 67 27 3e
       -0.031029128 0.103872746 -0.09460083 0.16347937
000220 9d 28 2c 3e f2 b2 27 be a2 0e 06 3d 9e 2d 0d 3d
       0.16812368 -0.16376856 0.0327288 0.034467332
000230 c9 9d 2a be bd 8c dd bc d1 27 d0 3d 90 25 d5 bd
       -0.16661753 -0.027044648 0.101638444 -0.10407555
000240 5d dc 1f bd 7c 3b 9d bb a8 a6 99 bd d3 8d 7c bb
       -0.039028514 -0.004798351 -0.0750249 -0.0038536682
000250 d6 96 e5 3d 35 bd 99 bd f4 c6 e0 bd b1 ea fe 3c
       0.1121041 -0.075067915 -0.10975447 0.031117769
000260 b9 4e ba b9 97 30 fe bd 96 0e 2c be 0b 7e c7 ba
       -0.00035535338 -0.124116115 -0.16802439 -0.0015220059
000270 91 be 10 3e 38 d6 c5 bd 4c ea 21 3e 97 3d d5 bd
       0.14135195 -0.096599996 0.15812033 -0.10412138
000280 02 15 54 be 4b a3 14 bb 29 fc 34 3d 5d 78 0b be
       -0.20711139 -0.0022680338 0.04418579 -0.13620134
000290 c3 01 9a 3d e4 56 c3 3d a0 e8 31 be 28 30 be 3c
       0.07519867 0.095380574 -0.17373896 0.023216322
0002a0 6d dc 44 be dc 70 a0 3d 4f a8 85 3d aa 0c f3 3d
       -0.19224711 0.07834026 0.06526243 0.1186765
0002b0 b0 c7 36 3e 0b 87 23 3e 75 4c 24 3e 7d 93 06 be
       0.17849612 0.15969484 0.16044791 -0.131422
0002c0 65 eb 06 3c 38 83 52 3d 36 d9 29 be 56 a3 51 bc
       0.008234833 0.05139467 -0.16586766 -0.01279529
0002d0 46 16 c7 3c 8d 9a dc bc 8c b1 2a be 38 33 f4 3a
       0.024302613 -0.026929164 -0.16669291 0.0018630987
0002e0 f1 61 bb bd 5c 3b 4e bd b7 37 b5 3c 0a f2 41 bc
       -0.0914954 -0.05034958 0.022121293 -0.011837492
0002f0 d7 2e ef 3c 62 c6 0a 3d f8 e1 90 bc 09 5b 2d be
       0.02919714 0.0338806 -0.017685875 -0.16929258
000300 b2 a0 73 bc f4 5d 14 be 93 f0 46 be 6b 92 7a bd
       -0.014869856 -0.14488965 -0.1942771 -0.06117479
000310 31 53 04 be 08 81 34 3e 38 83 52 3d 6c 93 24 3d
       -0.1292236 0.17627347 0.05139467 0.040179655
000320 89 f3 ac bd 14 a9 85 3c 27 ff 05 3e 9b 6e b5 bd
       -0.08444888 0.016315974 0.13085614 -0.08858987
000330 82 ba 09 3e bc 3a 01 be 3e c4 e5 bd 89 60 0a 3e
       0.13450053 -0.12620062 -0.11219071 0.13513388
000340 4d 34 95 3d a1 80 e7 bc dc 84 d0 bd d5 06 1b 3e
       0.07285366 -0.028259577 -0.10181591 0.15139325
000350 56 67 32 3e e6 25 92 bd 5b a9 d5 bc 67 c1 30 3e
       0.17422232 -0.07136135 -0.026081732 0.17261277
000360 23 e2 a8 bd 1d cf 1e 3e ad 18 03 3e 1a 00 d5 3d
       -0.08246257 0.15508695 0.12802382 0.1040041
000370 36 40 40 3d fd f6 48 be 13 22 94 bd 7d 75 02 bd
       0.046936236 -0.19625469 -0.07233062 -0.031850327
000380 5e f4 bf 3d b5 8a 2e be 25 36 b4 3d e0 86 03 3e
       0.09372781 -0.170451 0.0879939 0.1284442
000390 78 85 df 3a e9 82 c1 bd 38 b5 fc 3d 61 89 19 be
       0.0017053327 -0.09448797 0.12339252 -0.14993812
0003a0 45 be 0f 3e 0d bc eb 3a d0 5c 00 3e f9 b0 6c bd
       0.14037426 0.0017985121 0.12535405 -0.05778596
0003b0 0b 27 20 be 6f e2 f8 bd 0a 01 9e bd 8a 04 05 3e
       -0.15639894 -0.12152564 -0.07715042 0.12990013
0003c0 14 13 11 be 83 17 31 3e cd 24 2e 3e ab dd b5 3d
       -0.14167434 0.17294125 0.17006226 0.088801704
0003d0 cb 03 39 bd da 5d 9b 3d 6a b9 54 3e 25 9a 04 3e
       -0.045169633 0.0758626 0.20773855 0.12949426
0003e0 93 45 dc bd e8 39 09 be 1c a2 1f 3e 7e fc 30 3e
       -0.10755458 -0.13400996 0.15589184 0.17283818
0003f0 79 5c fc 3c 09 60 8b 3c de b0 d4 3b 57 c9 5d 3d
       0.030805813 0.017013567 0.006490811 0.05414709

classifier.0.bias f4 [32]
000000 23 c6 60 3c 2a b0 8f bd 55 e7 e8 bd 83 4e ed bd
       0.0137191145 -0.070160225 -0.11372248 -0.115872405
000010 99 15 10 be b5 3b 7a 3d e7 63 b6 3b e6 b8 90 3d
       -0.14070739 0.061092097 0.0055661085 0.070665166
000020 cd 21 c3 ba 5a 3d e5 bd c9 a7 38 3e c9 f4 10 bd
       -0.0014887393 -0.111933425 0.18032755 -0.035389695
000030 d5 ec 10 be b6 d1 3f 3e b9 b8 44 be 52 97 f7 bd
       -0.14152844 0.18732342 -0.19211091 -0.12089409
000040 62 7b 23 be be 54 b9 bd 04 08 90 3d cb 12 0a bc
       -0.15965036 -0.090493664 0.07032779 -0.008427332
000050 ed ce e4 3d ec 9c c9 3b fb 0a c1 3d b1 a0 90 3b
       0.111722805 0.0061527397 0.094259225 0.004413687
000060 17 90 e9 3d 91 13 a2 3d 29 57 1d be 18 68 43 3e
       0.11404436 0.07913888 -0.1536528 0.19082677
000070 d0 71 24 3e f5 c9 a6 bd ac 2c 32 3d cc 59 e8 bd
       0.16059041 -0.08143989 0.043499634 -0.113452524

classifier.1.weight f4 [32]
000000 6b 6e 7c 3f df 03 7c 3f 47 30 7c 3f 81 58 7f 3f
       0.98605984 0.98443407 0.98511165 0.9974442
000010 8b e2 80 3f 12 9a 7e 3f 69 d8 7e 3f 77 68 82 3f
       1.0069135 0.9945384 0.99548966 1.018813
000020 04 27 7e 3f 08 b3 7e 3f 61 95 7e 3f fb 20 7f 3f
       0.99278283 0.9949193 0.99446684 0.996597
000030 bb e2 81 3f 98 db 7d 3f dd 56 7f 3f 69 47 80 3f
       1.0147318 0.991632 0.9974192 1.0021793
000040 12 83 7f 3f 45 e1 7f 3f 69 f3 82 3f 37 09 7f 3f
       0.9980937 0.9995311 1.0230533 0.99623436
000050 20 30 7c 3f 93 9e 7a 3f 58 1d 82 3f ae af 7c 3f
       0.9851093 0.97898215 1.0165205 0.98705566
000060 48 3e 80 3f 9c a7 81 3f f3 3e 7c 3f 68 23 7e 3f
       1.0019007 1.0129275 0.9853355 0.99272776
000070 7b e2 82 3f dc 13 81 3f dd c8 7f 3f de c5 7e 3f
       1.0225366 1.0084186 0.9991587 0.9952067

classifier.1.bias f4 [32]
000000 0c 4f a0 bb 99 14 c0 3c a7 41 f6 bb 4d 90 30 3c
       -0.0048922356 0.023447322 -0.0075151506 0.0107765915
000010 32 ba 41 3c 42 2b 90 3c bc f0 5f 3b 4d c4 7a 3c
       0.011824178 0.017598752 0.0034170588 0.015305591
000020 b5 47 60 bc 10 30 83 3c 91 4d 6d 3c 5a c2 c1 bb
       -0.013688971 0.016014129 0.014483825 -0.005913061
000030 8b 34 0a 3c 50 45 95 3a 8f 8c 5f bc 03 e6 c6 3c
       0.008435379 0.0011388455 -0.013644352 0.0242796
000040 02 5f 75 3b 28 f0 a4 3c a6 80 34 3c 85 3f 19 bb
       0.0037440662 0.020134047 0.011017 -0.0023383808
000050 5b 68 33 bc 17 bf 9b 3c 08 83 7b 3b 60 ae 11 3b
       -0.010950173 0.019012017 0.0038377661 0.002222918
000060 77 cf cb 3c a8 38 e8 ba f1 45 9b 3a 5f 93 cd bb
       0.0248792 -0.001771708 0.0011846406 -0.0062736715
000070 f1 46 83 3c 95 72 85 3c 43 d4 ee 3c 3f 9a 2b 3c
       0.016025038 0.016289989 0.029153949 0.010473787

classifier.1.running_mean f4 [32]
000000 1e 0c b7 be ea dd 14 bf e6 69 5f 3e 17 0c e5 3c
       -0.35751432 -0.58151114 0.21817741 0.027959866
000010 b5 e9 08 3e 3d 82 91 be ed 07 3e bd db 7d 45 3e
       0.13370402 -0.28419676 -0.046394277 0.19286291
000020 d5 5e f0 3d 55 eb 99 3e 49 9c 03 3f ea bd 95 3c
       0.11736838 0.30062357 0.5141035 0.018279035
000030 8a 0d 88 3d 13 ea f7 bc e5 25 d2 be 10 f9 0f bd
       0.06643207 -0.030262982 -0.41044536 -0.035149634
000040 5f 94 3d be 04 7e 11 3d f8 56 54 3e 19 1d 62 bd
       -0.1851363 0.03552057 0.20736301 -0.05520353
000050 be 4e 4c be f1 b5 d9 be fd e8 d9 3d 51 14 ae bd
       -0.19951913 -0.42521623 0.10640142 -0.08499969
000060 7b 5b 35 3e de a6 13 3e f9 29 b9 be a2 94 88 bc
       0.17710678 0.14419124 -0.36164835 -0.016672436
000070 cd 2e 84 3e 87 af 05 3e 77 c9 04 3f 04 f6 21 bf
       0.25816956 0.1305524 0.5186991 -0.63266015

classifier.1.running_var f4 [32]
000000 25 89 8e 3e eb 90 bc 3e 0d f1 c9 3e 29 53 a6 3e
       0.27839008 0.36829314 0.3944172 0.3248532
000010 a7 88 f3 3d 8c 96 35 3e 59 47 40 3c 97 fc 45 3d
       0.11891299 0.1773321 0.011735761 0.04833659
000020 03 bb 46 3d 12 ed fc 3e 40 49 4f 3e 06 b3 cc 3c
       0.048518192 0.4939962 0.20242786 0.024987709
000030 23 c9 79 3d 01 70 86 3d e1 aa 52 3e 38 ef c1 3d
       0.060982835 0.06564332 0.20572998 0.094694555
000040 48 58 77 3d 6f 2d 7b 3d ea 9d 08 3d 36 fb 53 3e
       0.060386926 0.061322626 0.033353724 0.20701298
000050 f7 c7 a6 3e c6 93 e0 3e e3 31 5c 3c 9f 1a 5b 3d
       0.32574436 0.43862742 0.013439628 0.053492185
000060 82 ee 2e 3c 27 99 61 3c 1c ea 0a 3e b7 da bd 3d
       0.010676982 0.0137694245 0.13565868 0.09270232
000070 83 98 98 3c 43 c7 7b 3d 6f a7 b4 3e 45 07 d4 3e
       0.01862741 0.061469328 0.35283992 0.41411796

classifier.3.weight f4 [64, 32, 3, 3]
000000 28 90 ff 3c 9a 06 ec bc 9c c1 b3 bc 82 ba 53 3d
       0.031196669 -0.028811742 -0.021942906 0.05169154
000010 9d ee 32 bd 85 1e 1f 3a fb ab d2 3c de 5f ee bb
       -0.04368459 0.00060699164 0.025716772 -0.007274612
000020 d9 09 fb bc 0a c9 ae 3c 4a 53 39 bd 85 e7 58 bd
       -0.030644344 0.021336097 -0.045245446 -0.05295517
000030 c5 e4 5a bd ad 6e 2a 3d 79 3c 24 bd 6b 9a f5 3c
       -0.053440828 0.041609455 -0.040096734 0.029980859
000040 5d 33 40 bd 32 46 c4 3c ce 80 1c bd ea 5a 19 bd
       -0.046923984 0.023959253 -0.038208775 -0.037440218
000050 3b 5e 65 bc a6 1e 6c bd 7b 6f 33 3d 23 d5 34 ba
       -0.013999517 -0.057646416 0.043807488 -0.0006898215
000060 b2 c0 0d 3d 01 7d 38 3c 87 43 cc 3b 74 cc 7e bd
       0.034607597 0.011260272 0.006233636 -0.0622067
000070 63 6d e3 3c af 3f 41 3d 45 a9 ef 3c ac 8d 89 bc
       0.02776212 0.047179874 0.029255519 -0.016791187
000080 f4 b8 1d bb 03 e5 2f 3d cb 77 54 bd f8 56 9a ba
       -0.002406654 0.042943012 -0.051872056 -0.0011775186
000090 31 1a 6b bd a8 5e 30 bd b2 33 14 3d 96 73 51 bc
       -0.057398025 -0.04305902 0.036182113 -0.0127839055
0000a0 4d 3b 6b 3d 8b db 2c 3d be 4e 0b 3d 6c 70 a8 3c
       0.0574296 0.04220156 0.03401064 0.02056142
0000b0 79 97 0f 3d 6f 8a 35 3c 39 9d 19 bd a1 f5 45 bc
       0.035056565 0.011080368 -0.037503455 -0.012082488
0000c0 cb 72 b0 bc ef 6f 27 3d 37 01 0f bd e5 eb 27 bd
       -0.021539113 0.040878233 -0.034913268 -0.04099645
0000d0 28 36 0a 3d 59 72 44 3d c6 1c ea 39 02 60 1e 3c
       0.033743054 0.047960613 0.00044653396 0.009666445
0000e0 7e bd 27 bd b9 fc 4d bd 36 79 ab bc c1 c2 02 bc
       -0.0409522 -0.050289843 -0.020931821 -0.007981003
0000f0 91 1e 68 3d 7e ad 55 bd 8a 33 6e bc 53 a5 78 bd
       0.056669775 -0.05216741 -0.014538655 -0.06070454
000100 50 bc 5b bc f4 0b 10 3d c1 8a 1d 3d 75 09 84 bd
       -0.013411596 0.03516765 0.038462404 -0.06447116
000110 21 1b d9 3c 3e ce b1 bb 6d 9a fd bc d9 aa 8c bd
       0.026502194 -0.0054261973 -0.030957425 -0.06868524
000120 ed 76 81 3c cc 0d 86 bc 14 51 06 3d 26 23 6d bd
       0.015803779 -0.016364 0.032792166 -0.05789485
000130 55 9f 46 3d b3 0a 8d bb 47 5f 1f 3d f2 61 34 3d
       0.048491795 -0.004304254 0.038909223 0.04403872
000140 54 cf 8f 3c d9 f1 0a bc d2 2c 0f bd ee 92 f9 3c
       0.017554916 -0.008480513 -0.034954853 0.03046557
000150 8b 27 ad 3c 8c df b0 3b 10 1a ec 3c 03 00 a6 b8
       0.02113702 0.0053977426 0.028821021 -7.915499e-05
000160 f6 74 1e bc 57 1b 66 bd 35 16 00 bd b8 e3 8a bc
       -0.00967144 -0.056178417 -0.03127118 -0.016954288
000170 6d 3c 31 bd 90 f1 9c bc e5 37 d3 3a 4c 17 58 3c
       -0.043270517 -0.019158155 0.001611468 0.013189148
000180 74 3d 37 bd b0 78 29 bd 1b 9e be 3b 84 8b e5 bc
       -0.04473634 -0.041374862 0.0058171875 -0.028020628
000190 4a 57 a1 bb b6 eb e3 3c 98 56 15 3c 46 86 6c 3b
       -0.0049237357 0.027822357 0.009114884 0.0036090775
0001a0 2f e6 36 3d f5 4f f5 bc 64 90 00 3d 2b b7 57 3d
       0.044653114 -0.029945353 0.0313877 0.052664917
0001b0 04 66 b5 3c 56 de 3e bd 0d ce 10 bd ef 81 55 3d
       0.022143371 -0.046598755 -0.035352755 0.052125867
0001c0 ee ea f9 bc f7 0a 2f bc 6c c1 38 bc 30 33 37 bd
       -0.030507531 -0.010683767 -0.011276584 -0.04472655
0001d0 d7 eb 1a 3d 02 31 f2 bc 4a 68 d5 3c 52 40 31 bd
       0.03782257 -0.029564384 0.026050705 -0.04327423
0001e0 0e 1c d6 bc 99 ac 0e bd 5d 0c 5d 3c 6f ab 38 bb
       -0.026136424 -0.03483257 0.013491717 -0.0028178354
0001f0 4e 85 20 bd 3b c9 b8 3c d9 50 fb bc 96 0c 5d ba
       -0.03918963 0.022556892 -0.0306782 -0.00084323564
000200 89 44 82 3c 55 84 13 3d 5a 99 38 3c 97 dc 18 bd
       0.01590182 0.036014874 0.011267031 -0.037319746
000210 a3 7b fd bc ae 52 25 bd 2d 79 0e bc 11 04 5b bd
       -0.030942744 -0.040362053 -0.008695883 -0.053470675
000220 7f d1 41 bd a5 23 9c bc ff 67 0d 3d b1 eb 65 bd
       -0.04731893 -0.019059965 0.034523007 -0.056132976
000230 cd f1 4c bd 5a 30 05 bd 9c 11 37 bd 57 0f 26 bd
       -0.050035287 -0.032516815 -0.044694528 -0.040541973
000240 88 04 2f bd c9 29 ba bc 29 21 45 3d de 73 29 3d
       -0.04272893 -0.022725003 0.048127327 0.041370265
000250 89 e8 43 bd 4b 50 50 3d c6 8b 85 3c 70 79 db bc
       -0.047829185 0.050857823 0.016302 -0.026791304
000260 24 64 6e bd 36 5a 5f bd f9 07 0c bc a5 52 a5 bc
       -0.05820097 -0.05452939 -0.008546823 -0.02018101
000270 17 a3 04 bd e3 99 62 3d 21 5f cc bb ea 85 7c bd
       -0.032382097 0.05532254 -0.006236926 -0.061651148
000280 2e d3 d0 bc d4 21 59 bb 13 58 81 bd 4f 7b b4 bc
       -0.025491323 -0.0033131735 -0.06315627 -0.022031454
000290 33 d8 5c bd 01 5a 16 3c b6 62 21 bd ad 7e 72 3b
       -0.05391712 0.009176732 -0.03940078 0.0037001774
0002a0 31 77 8c bd 81 c5 7c bd 27 3e 80 bd 8d 7c 17 bd
       -0.068586715 -0.061711792 -0.062618546 -0.036984015
0002b0 c9 16 62 bd 86 ae 47 3d 8d 40 2f 3d 36 2b 6d 3c
       -0.05519751 0.048750423 0.04278617 0.014475634
0002c0 b9 a8 6b bd 5d 7d e2 bc d0 f0 5f bd 68 78 f2 bc
       -0.057533953 -0.027647668 -0.054673016 -0.02959843
0002d0 62 9f cc bc b4 fd ec bb ee 82 36 bd c2 52 43 3d
       -0.024978343 -0.007232392 -0.044558458 0.047686346
0002e0 8e 4b 39 bd cd 38 94 bc 7e 84 5c bd 52 03 22 bd
       -0.04523807 -0.018093491 -0.053837292 -0.039553948
0002f0 87 c3 ac 3c b4 89 0d 3d 1c fc 36 bc 90 15 55 3d
       0.021089328 0.034555152 -0.011168506 0.052022517
000300 a1 fe 20 3d b4 78 71 bd 5b e1 30 3d 10 59 1c 3d
       0.039305333 -0.058953002 0.043183666 0.038170874
000310 a1 ef 9d bc e1 70 14 bb e7 ee a6 bc a6 07 4c bd
       -0.019279303 -0.002265029 -0.02037759 -0.04981198
000320 de f4 8a bd 50 d2 6e 3a 4d 03 13 bc 52 b2 44 3c
       -0.06784986 0.00091103185 -0.008972955 0.0120054055
000330 86 b0 93 3c ba 70 36 3d c1 d6 e6 bc 37 11 67 bd
       0.018028509 0.0445411 -0.028178575 -0.0564129
000340 37 a3 4a 3b b6 ce 64 3d 6a 95 f9 3c a0 11 31 bd
       0.0030920038 0.055861197 0.030466754 -0.0432297
000350 35 d2 d5 bb e4 a5 10 bd e1 26 c3 b8 3c fb 56 3d
       -0.006525303 -0.035314456 -9.305566e-05 0.05248569
000360 45 33 49 bc 4d af 43 3c d5 7e f3 bb 8a e6 55 bd
       -0.01228029 0.01194365 -0.007430891 -0.052221812
000370 bd eb c1 bc 1e 2a 65 bb d7 8d cf bc 60 e3 1f bd
       -0.02367198 -0.003496773 -0.02533619 -0.0390352
000380 79 5a bf bc 98 07 28 3d de 6a 5a 3c 3e 1c 41 3c
       -0.02335857 0.041022867 0.013331143 0.011786519
000390 c6 58 e9 bc 74 fc 26 37 b0 75 b6 bc 27 36 59 3c
       -0.028484713 9.95315e-06 -0.022272915 0.01325754
0003a0 e3 d5 1f bd 16 00 0f 3d 14 ca 94 3c 64 12 05 3d
       -0.039022338 0.03491219 0.018162765 0.03248824
0003b0 22 41 36 bd e6 7a 0c 3d 8b 3c 19 3d ee 20 dd 3c
       -0.04449571 0.034296893 0.037411254 0.026993241
0003c0 96 8e 3d bd fe 87 39 bd cb 4f 80 bc a2 7f c1 3c
       -0.04627856 -0.045295708 -0.015663048 0.02362043
0003d0 45 a4 80 3c 18 19 14 3d dc f0 25 3d 16 f6 a5 3c
       0.01570333 0.036156744 0.040512905 0.020258944
0003e0 9a 3c dd 3b 01 fe 31 bd 81 01 81 bc 81 3a 98 3b
       0.006751609 -0.043455128 -0.015747787 0.004645646
0003f0 12 e2 8e bc 63 12 c4 bc c8 65 c6 3c b6 7c ad 3b
       -0.017441783 -0.023934549 0.024218455 0.0052944077

classifier.3.bias f4 [64]
000000 85 06 72 3d 9d 13 88 3c fc 85 50 3c 01 00 51 bc
       0.05908825 0.016610915 0.012727257 -0.012756349
000010 e2 ff 57 bd b4 67 0f 3d 2b c8 2b 3d f2 1d 65 3d
       -0.052734263 0.03501101 0.041938942 0.05593676
000020 68 cf 4e bd 8e 5e 73 3c 0a 59 3c 3d 02 3c d8 bc
       -0.050490767 0.014854087 0.04598335 -0.026395801
000030 79 7f 2e 3d 9a 7b 14 bd e4 63 67 bd d7 be 42 bb
       0.042602036 -0.036250688 -0.056491747 -0.00297158
000040 ae 36 88 3c 05 8d 70 bc b5 82 fd 3b 91 05 c1 bc
       0.016627636 -0.014682059 0.0077365288 -0.023562225
000050 f1 50 e7 3c 4c e0 41 bc 50 cb 16 3d 25 91 4f 3c
       0.028236838 -0.011833262 0.036814988 0.0126688825
000060 93 00 10 3d 21 75 1c 3d 64 0c 61 bb de bc 65 3c
       0.035156798 0.03819764 -0.003433966 0.01402208
000070 84 37 10 bd 00 3b ad bc 16 58 70 bc 00 5d 63 bc
       -0.035209194 -0.021146297 -0.014669439 -0.013877153
000080 d6 00 12 bd 11 0b 1e bd 0d a2 1a bd 0b 25 af 3c
       -0.03564533 -0.038584772 -0.0377522 0.021379968
000090 d4 dd 88 3c 6e 7b 2f bd e8 b8 6d bd 46 9c 2a 3d
       0.016707338 -0.04284232 -0.05803767 0.04165294
0000a0 90 61 4c 3c 9f 0e 1a bd 56 fa 44 3d da 21 0d 3c
       0.012474433 -0.0376116 0.0480903 0.008614028
0000b0 b7 80 df b9 21 1d 51 bd c1 61 25 bd cb 08 22 bd
       -0.00042629775 -0.05105317 -0.04037643 -0.039559167
0000c0 a1 fb 32 3d df 12 42 3d 34 06 ad 3b b9 75 58 bd
       0.043697003 0.047381278 0.0052802805 -0.052846644
0000d0 00 cc 03 3c d4 69 a9 3c 2b 61 5f 3d c1 71 2c 3d
       0.008044243 0.020680346 0.054536026 0.04210067
0000e0 3e 74 23 3d 6c b5 a5 bc 60 e5 36 3d 23 1b 65 3d
       0.03990578 -0.02022811 0.044652343 0.055934083
0000f0 89 a3 8b 3c da a9 65 bd 07 4c c9 bc 9c b1 2d 3b
       0.017045753 -0.056070186 -0.024572385 0.0026503569

classifier.4.weight f4 [64]
000000 3a d1 82 3f 8a 81 7f 3f c9 9e 80 3f 0e cb 80 3f
       1.0220101 0.99807036 1.0048457 1.0061967
000010 69 6a 7d 3f 88 3d 80 3f 06 80 7d 3f cb 30 7d 3f
       0.98990494 1.0018778 0.99023473 0.9890258
000020 32 fe 7c 3f 20 ff 7d 3f 0d 42 7e 3f 8d 80 7b 3f
       0.9882537 0.99217415 0.99319535 0.9824303
000030 a9 48 7f 3f c8 7b 7e 3f f3 c7 7e 3f 3b fb 7e 3f
       0.99720246 0.99407625 0.9952385 0.996021
000040 3f 74 7d 3f 0f d9 7d 3f 76 a3 81 3f fc fb 7e 3f
       0.990055 0.9915933 1.0128009 0.9960325
000050 fd 9d 82 3f 73 2a 82 3f 91 79 7f 3f 45 3e 80 3f
       1.0204464 1.0169204 0.9979487 1.0019003
000060 b0 3f 7f 3f 34 7a 80 3f cf 90 7c 3f 06 45 82 3f
       0.99706554 1.0037293 0.9865846 1.0177314
000070 fc 01 80 3f 30 3d 7f 3f f5 ac 81 3f 02 62 7e 3f
       1.0000606 0.9970274 1.0130907 0.993683
000080 18 8b 7e 3f 42 25 7c 3f fe 28 7c 3f a2 2e 84 3f
       0.9943099 0.9849435 0.9850005 1.0326731
000090 74 2b 7c 3f 6a b8 7f 3f cd 8f 7e 3f d3 d9 7b 3f
       0.98503804 0.9989077 0.9943817 0.9837925
0000a0 de 30 81 3f d4 85 7d 3f 01 90 80 3f 7f 2f 7e 3f
       1.0093038 0.9903233 1.0043947 0.99291223
0000b0 16 fe 7f 3f a9 74 7e 3f 91 04 80 3f c8 0d 7f 3f
       0.9999708 0.9939676 1.0001394 0.99630404
0000c0 e7 8a 80 3f 27 ab 81 3f 12 0c 83 3f 2d 48 7f 3f
       1.004239 1.0130357 1.0238059 0.99719507
0000d0 d7 dd 7d 3f a4 5a 81 3f 74 c2 7f 3f 0b 7c 7e 3f
       0.99166626 1.0105786 0.99906087 0.99408025
0000e0 cc 49 7e 3f be bd 7d 3f e0 95 7f 3f 7c ff 80 3f
       0.99331355 0.9911765 0.99838066 1.0077968
0000f0 9e ee 7f 3f 97 8e 7e 3f ed bd 7e 3f c7 df 7d 3f
       0.99973476 0.99436325 0.99508554 0.9916958

classifier.4.bias f4 [64]
000000 6c 1e 4c 3c f7 02 33 bc dd 63 7d bb ab 3e b9 3a
       0.012458425 -0.010926 -0.003866426 0.0014133056
000010 17 a7 1d bc 46 70 f1 bb ca df 9a bc 67 df 56 bc
       -0.009622357 -0.0073681204 -0.018905539 -0.013114787
000020 77 70 47 bc e8 b4 42 bc a4 18 aa ba 7b c2 40 3b
       -0.01217281 -0.011883952 -0.0012977314 0.0029412794
000030 ad a7 59 ba 07 4d 92 bb ae 56 ca bc b6 c5 40 bb
       -0.00083028787 -0.004464749 -0.024699535 -0.002941472
000040 36 2f 00 bc 68 a8 ec bb 23 ca 79 39 c9 84 63 3b
       -0.007823756 -0.007222224 0.00023821792 0.0034716597
000050 97 46 20 3c 47 48 41 3b 94 5c ea ba 08 86 7f 3a
       0.009782455 0.0029492544 -0.0017880374 0.000974745
000060 f9 19 11 bc 4b c8 75 bc ad 10 8e bc e7 7b 90 3c
       -0.00885629 -0.015001367 -0.017341936 0.017637206
000070 ec c7 d6 39 1e b9 5f bb e5 21 f3 3b aa 7b 37 bc
       0.00040966214 -0.0034137438 0.007419812 -0.011198917
000080 e8 d9 31 bb df 50 0f bc e1 17 22 bc 6d 0e f2 3b
       -0.002713794 -0.0087473085 -0.0098933885 0.0073869736
000090 ab bd 65 bc 63 83 fa 3a 89 f0 c1 bb 08 0f 94 bc
       -0.014022271 0.0019112643 -0.0059185666 -0.018073574
0000a0 38 0f b3 3a 06 37 f4 bb 40 dc e6 bb af e4 0a bc
       0.0013661152 -0.0074528484 -0.007045299 -0.008477374
0000b0 22 a3 9a 3b 24 82 36 3b 54 d7 67 bc c6 78 6c bc
       0.004719154 0.0027848566 -0.014150459 -0.0144330915
0000c0 15 f9 f5 b9 95 54 05 3c fb 56 53 3c f9 32 06 3b
       -0.00046915622 0.008137842 0.012899156 0.002047716
0000d0 ed bb d1 bb e2 d8 de 3b db a6 89 3b a3 a6 bd ba
       -0.0064005763 0.006800757 0.004200799 -0.0014469217
0000e0 6c 2a 88 3b c0 b4 13 bb 8e 8b 8c bb d2 22 35 3b
       0.0041554477 -0.0022538155 -0.004289097 0.0027639163
0000f0 d9 fe 1e bc 9f c9 6e 3a b4 75 05 bc 1d 29 dd bb
       -0.009704315 0.00091090234 -0.008145738 -0.006749286

classifier.4.running_mean f4 [64]
000000 61 21 1b bf f6 05 dd 3d b0 a0 6d be 67 6d 5a be
       -0.6059781 0.107921526 -0.23205829 -0.21330796
000010 77 ef 27 3e d7 e6 72 3e d0 8c 85 bc f1 c9 23 3e
       0.16399942 0.23720871 -0.016302496 0.15995003
000020 88 7f a3 3e 7e 03 dc be d2 f6 60 3d 2b 0e ec be
       0.31933236 -0.42971414 0.054922886 -0.4610456
000030 7c 7d 25 be 86 6f 84 bd cb de c9 be c2 92 de be
       -0.1616115 -0.06466584 -0.3942779 -0.43471342
000040 d6 1d 4a bf 40 f8 11 bf 74 e8 a7 bd 77 2a ed be
       -0.78951776 -0.57019424 -0.08198634 -0.4632146
000050 40 bb ca bd b5 83 23 bf ec 9f 05 bf a3 e9 81 be
       -0.09898996 -0.63872844 -0.52197146 -0.25373563
000060 0b 96 ea 3d bf fd 7d be 94 9a 79 be 4d 98 05 bf
       0.114544 -0.24803828 -0.24375373 -0.5218552
000070 2f 56 e0 be 2d 72 d7 be 77 d4 3c bf 83 7b 4f 3d
       -0.43815753 -0.42079297 -0.73761696 0.0506549
000080 ec 5d 06 bf 6b c1 2a bf 0a 4c 0e be 2e 53 b5 be
       -0.52487063 -0.6670138 -0.13896194 -0.35415024
000090 32 8f 8f 3e 9c 91 2d bf a6 60 52 bd 86 36 24 3d
       0.28038937 -0.6780031 -0.051361702 0.04009106
0000a0 7d 7f ac be d5 66 a4 be f1 41 4b be 81 a3 02 3d
       -0.33691016 -0.32109705 -0.19849373 0.03189421
0000b0 32 8d 0e bf b3 10 aa be 68 2e e2 be 92 fd 28 bf
       -0.55684197 -0.33215865 -0.4417603 -0.6601192
0000c0 6e a5 63 be 5b 30 c8 be 4a 51 10 bf 3c 13 c2 be
       -0.22231075 -0.39099392 -0.5637404 -0.379053
0000d0 97 e1 69 3e 95 3c e2 be af b7 c7 bc 15 68 04 bf
       0.22839962 -0.44186845 -0.02437958 -0.51721317
0000e0 06 36 0b bf e2 c8 08 bf 5d 89 5e be 5e 1b b0 be
       -0.5437931 -0.5343152 -0.21732087 -0.3439588
0000f0 86 5d cc be 47 eb e4 be eb 21 f7 3e b4 bf b0 be
       -0.39915103 -0.44710752 0.48268065 -0.34521258

classifier.4.running_var f4 [64]
000000 70 e9 88 3e c3 c7 c5 3e c2 be a3 3e a3 c0 6d 3e
       0.267406 0.3862897 0.31981474 0.23218016
000010 14 5d c3 3e 10 3f 84 3e 2b d9 09 3f f6 0d bc 3d
       0.3815695 0.25829363 0.53847 0.0918235
000020 c1 78 bb 3e 13 82 0d 3e cd 4e ac 3e 3c 6f 40 3e
       0.36615565 0.1381915 0.3365387 0.18792433
000030 77 92 7a 3e c0 a3 c1 3d c2 05 0d 3e fc ae 7c 3e
       0.24469934 0.09455061 0.13771728 0.24676126
000040 26 f4 4b 3f 69 51 ad 3e ae 49 9e 3d 4b 1c f3 3d
       0.79669416 0.33851174 0.07728897 0.11870631
000050 d4 42 af 3d dd 29 65 3e b2 8a 4a 3f 6a 7a cb 3d
       0.08557668 0.22379251 0.7911788 0.09935458
000060 23 83 1f 3e a8 93 b0 3d db 84 d8 3d 39 62 fe 3e
       0.15577368 0.08621913 0.10572215 0.49684313
000070 2d 92 bd 3e d9 d9 a5 3e 80 63 b2 3e 1a 97 ca 3e
       0.37025586 0.32392767 0.34841537 0.39568406
000080 1f dd 9b 3e 40 2a d4 3e 1c b3 d2 3e 6a c9 34 3e
       0.3044214 0.41438484 0.41152275 0.17654958
000090 02 34 c3 3e 3d 81 3a 3f 6c b2 b7 3d 48 76 8a 3e
       0.38125616 0.7285345 0.08969578 0.27043366
0000a0 f0 b9 cc 3d 1e 64 66 3e 3c 01 ab 3d c0 02 08 3e
       0.09996402 0.22499129 0.08349845 0.13282299
0000b0 74 bf 48 3f 33 47 ff 3d 70 e7 4c 3e 5c 75 e1 3e
       0.78417134 0.12464752 0.20010161 0.4403485
0000c0 60 47 34 3e 6f 37 34 3e 17 ca 74 3e 5b fc 92 3e
       0.17605352 0.17599271 0.23905216 0.28708157
0000d0 ad 06 92 3e 53 5d 5c 3e 68 6d 2e 3e 80 14 a9 3e
       0.28520718 0.21519975 0.17033923 0.33023453
0000e0 c5 e6 d9 3e f9 dc ec 3e 67 26 20 3e 25 d7 15 3e
       0.42558876 0.4626234 0.1563965 0.14632852
0000f0 90 5c 63 3e 35 0b 96 3e fa 76 b0 3e ae 94 75 3e
       0.22203279 0.29305425 0.34465772 0.23982498

classifier.6.weight f4 [128, 64, 3, 3]
000000 5a 31 b1 3b 11 d0 1c bd af 4f af 3c a7 4a 8c bc
       0.0054074945 -0.038284365 0.0214003 -0.01712544
000010 9c ca 7a 3b 51 4d b4 3c 89 7c b3 3a e0 5f 07 bd
       0.0038267737 0.022009524 0.001369373 -0.033050418
000020 08 82 98 bc ac d0 19 3d 8f 1e ab 3c a1 15 66 bc
       -0.018616691 0.03755252 0.020888595 -0.014043243
000030 f9 3a ed bb 82 a6 f4 bc 07 df 76 3c 09 85 c0 bc
       -0.007239696 -0.029864553 0.015067822 -0.023500936
000040 0c a4 b6 3c d6 3e 28 bd 91 11 90 3c 75 0e ec 3c
       0.02229502 -0.04107555 0.017586501 0.028815487
000050 0f d1 e0 3c 7b a8 ac 3c bd 1d a6 3c c1 88 27 bc
       0.027443437 0.021076431 0.020277852 -0.010225476
000060 13 92 d0 bb c2 5f 08 3c ec 09 15 bc d3 63 2d bc
       -0.0063650697 0.008323612 -0.009096604 -0.010582882
000070 ea ef 92 bc 4a 65 c1 bc 32 4e eb 3c d0 97 23 3d
       -0.017936666 -0.023607869 0.02872381 0.0399397
000080 68 8e 1f 3d 61 ba 7a 3c 2d 1c 51 bc 00 67 0b bd
       0.03895417 0.015303225 -0.012763065 -0.034033775
000090 09 bf 32 3d ff 9f ec 3c ee ed b4 bc cb a1 ba bc
       0.043639217 0.028884886 -0.02208611 -0.022782227
0000a0 f2 e9 20 3d 7a 84 87 3c ac 2a e1 bc 6b 93 1e 3d
       0.039285608 0.016542662 -0.027486168 0.038714807
0000b0 2d 23 b2 3c 01 ee ff 3c c5 7e e9 bc d9 8a 0c 3d
       0.021745289 0.031241419 -0.028502831 0.034312103
0000c0 c2 ae 04 bd 90 67 36 bd de b4 18 bd 78 91 0b bd
       -0.032393225 -0.04453236 -0.037281863 -0.034074277
0000d0 ac 28 26 bd a9 95 85 bc c9 34 41 bc 42 c0 a5 3b
       -0.04056613 -0.016306715 -0.01179237 0.0050583193
0000e0 8e ee 38 bd 9f de 83 3b 0b 80 90 3c b8 ea fd 3c
       -0.04514938 0.0040243412 0.01763918 0.030995712
0000f0 b7 97 17 3d 82 30 48 3c 36 4f 36 bd 28 11 2e 3b
       0.03700992 0.012218596 -0.044509135 0.002656052
000100 ef f7 93 bb f3 99 bc bc 18 b1 96 3c b0 40 8b bc
       -0.00451564 -0.023022627 0.018394992 -0.016998619
000110 d9 0f 11 bc 8f c6 1a 3d 00 cf 7d bc 0d 1a 09 3d
       -0.008853876 0.037787016 -0.015491247 0.03347211
000120 f5 9e 0b bd c8 ca 11 3d 18 ba fa 3c e1 85 23 3d
       -0.03408714 0.035593778 0.030606315 0.0399226
000130 3d d2 26 3d c5 a1 13 3c 1c 45 0a bd 31 6e 1b 3c
       0.040727843 0.009010737 -0.033757314 0.009486721
000140 63 e6 1a bd e3 f8 ce 3c 15 1f 20 3d 38 15 fe 3b
       -0.03781737 0.025265163 0.039092142 0.0077539943
000150 1e 4d 45 3c 1b 1f 45 3c c6 2b 3e bb b0 b4 20 bd
       0.012042312 0.012031342 -0.002901779 -0.039234817
000160 b6 6d d3 3c e0 bd 02 bc 86 38 25 3d 58 40 a5 3c
       0.02580915 -0.00797984 0.040337108 0.020172283
000170 5e 23 02 3c 41 06 fe 3c 2a 29 00 39 02 37 cf bc
       0.0079430025 0.031008841 0.00012222366 -0.025294784
000180 4d 65 aa 3c fa ef 9f bb 07 51 55 bb a2 95 50 bc
       0.020800257 -0.0048809024 -0.0032549517 -0.012730988
000190 a2 5a fd 3c 07 13 e4 3b 2f 9a 10 3c 90 20 ad 3b
       0.030927006 0.006960276 0.008825823 0.005283423
0001a0 05 03 1d 3d ff b8 5f bc c2 4d 12 3d b4 47 9e 3c
       0.038332958 -0.013654946 0.035718687 0.0193213
0001b0 0b 77 05 3d f1 63 3f 3d 4e f0 46 3d 3d 60 e2 3c
       0.03258423 0.04672617 0.048569016 0.02763378
0001c0 4a 76 36 3d 4c 6d 27 3c e2 fa 8b 3c a8 56 3d 3d
       0.044546403 0.0102189295 0.017087404 0.04622522
0001d0 80 4d 74 bc 31 d4 f3 39 de ef 2b bc d4 1b 1d 3c
       -0.014911056 0.00046506667 -0.0104942005 0.009589154
0001e0 d4 93 08 bd 90 2e 1b 3d 15 ab 0e 3d 78 3d 90 3c
       -0.033344105 0.037886202 0.034831125 0.017607436
0001f0 1d 2b 06 bd 6a e8 f7 bc 80 d8 10 3d 49 18 5d 3c
       -0.03275596 -0.03026219 0.03536272 0.01349456
000200 56 82 cb 3c 41 5f b9 bb 0c 9b 9d bc 08 f4 de 3c
       0.024842422 -0.005657107 -0.019238971 0.027215973
000210 56 7e 2b 3d 10 8e ff 3c 7c 5b cc 3c e2 4e 7b bc
       0.04186853 0.03119567 0.024945967 -0.015338631
000220 ff 8b 14 bd 56 0c 20 bc a9 fa 31 bc 72 ec 4d bc
       -0.036266323 -0.009768566 -0.010862985 -0.01256858
000230 47 e6 be 3b 6e 9c ee bc a0 92 2a bd 6b 62 df bc
       0.005825791 -0.029127326 -0.04164374 -0.027268609
000240 62 6f cf bc 41 a2 a4 bc 84 cc b3 3c 15 bf f3 3c
       -0.025321666 -0.0200969 0.021948107 0.029754201
000250 0d 5c 4f bb 8c f1 6f bc 86 7a cd ba 63 27 95 3c
       -0.003164056 -0.014644992 -0.0015676774 0.018207258
000260 34 2b 22 bd 66 27 a3 bc 18 f2 12 3d df 4a 12 bd
       -0.039591983 -0.019916248 0.03587541 -0.035715934
000270 ac 94 25 bd c4 df f2 bc 31 f9 8f bc 0b 96 a4 3a
       -0.040424988 -0.029647715 -0.017574878 0.0012556923
000280 38 7a 88 3a 35 36 a4 bc 25 4d 6c bc 3d 87 bf bc
       0.0010412401 -0.02004538 -0.01442269 -0.023379916
000290 5e bc 83 bc 0d fe da bb fd 0c dd 3c b5 db 76 3b
       -0.016081031 -0.0066831172 0.026983732 0.0037667577
0002a0 87 1f 86 3c 91 26 d2 bc 23 1f b1 3c a7 a8 11 bd
       0.016372455 -0.025653156 0.021621292 -0.03556123
0002b0 aa 73 9c bc 95 32 98 3c 9f 43 a1 bb 43 7e 24 3c
       -0.019098122 0.018578807 -0.004921391 0.010039869
0002c0 99 76 d1 bc db 49 1b 3d 92 a7 5a bb 3c 99 09 bd
       -0.025569247 0.03791223 -0.003336404 -0.0335934
0002d0 85 46 f5 bc dd 62 d6 bc ad 5e bd 39 4a 01 1f 3c
       -0.029940853 -0.026170189 0.00036119428 0.009704897
0002e0 1c ad ce 3b 08 b0 24 bb 4d e0 08 3d 97 d7 68 3b
       0.0063072573 -0.0025129337 0.033417035 0.0035528892
0002f0 14 4f 16 3d 41 60 64 bb 15 98 fe bb ff cb 2f bd
       0.03669651 -0.003484741 -0.0077695944 -0.042919155
000300 88 88 c9 bc 15 67 c3 bc ab 6c ec 3b d8 2b 4a bd
       -0.024601236 -0.023852864 0.0072151027 -0.04935822
000310 f2 20 cd 3c dd b6 55 bc 82 27 81 3b 99 9b 47 3d
       0.025040124 -0.013044086 0.0039414773 0.048732374
000320 c3 d4 91 bb 4b cc 07 bc f0 5b 02 bd 19 5f a1 3c
       -0.004450412 -0.008288453 -0.03182596 0.019698666
000330 47 88 2e 3b 35 f5 9c 3c e5 8f 3d 3c 4d 98 35 3d
       0.002663152 0.019159893 0.011569952 0.0443347
000340 de 7d 53 bc 8b 94 0d 3d 6f 21 93 3c 89 22 08 bd
       -0.012908427 0.03456549 0.017960278 -0.03323606
000350 46 93 8c bc 7e ea e2 3c 11 9c 8c 3c b5 18 8a bc
       -0.01716007 0.027699705 0.017164262 -0.016857484
000360 03 a7 28 bc 62 15 de 3b 60 01 7a 3b 5b 8c a7 bc
       -0.010293725 0.0067774514 0.0038147792 -0.020452669
000370 ab 6a c3 3a 94 71 23 3d 54 86 ab 3b 90 43 e8 bb
       0.0014909109 0.03990324 0.005234519 -0.007088132
000380 a6 c7 0d 3d 8a d2 12 3d bb 32 dc bb 4d 42 dd bc
       0.034614228 0.035845317 -0.0067199147 -0.027009154
000390 03 03 90 3c 16 b5 a3 bc 14 02 e0 38 0d 7c 11 3d
       0.017579561 -0.01998381 0.000106815394 0.035518695
0003a0 f4 9b d6 3b e2 9a 15 bc 4b 7f cd 3a c7 a0 ae bc
       0.006549353 -0.009131165 0.0015678195 -0.021316899
0003b0 40 3b e3 bc 54 44 1b 3c 4e a0 e1 bc 9f e7 0f bd
       -0.027738214 0.00947674 -0.02754226 -0.035133
0003c0 17 9a 09 3c 73 97 ac bb b7 b2 1b bc d3 4a 1f 3d
       0.008398554 -0.0052670776 -0.009503058 0.038889717
0003d0 2d 91 8f 3c 39 c5 47 3d 14 46 11 bd 11 de 8f 3c
       0.01752528 0.04877207 -0.035467222 0.017561944
0003e0 6e f2 b3 bc 92 ad f8 bb 15 40 00 bd af 7f 36 3d
       -0.021966185 -0.0075890506 -0.031311113 0.044555362
0003f0 78 77 fe 3c 6d 31 29 bc da db cc bc 1a 54 02 3d
       0.031062827 -0.010326725 -0.025007177 0.031818487

classifier.6.bias f4 [128]
000000 ff 72 18 bd be e7 fb 3c a8 14 f3 3a 45 e4 19 3d
       -0.037219044 0.030750152 0.0018545585 0.03757121
000010 37 4b ac bc 3a 3a 23 bb d3 aa ce bc 96 e5 54 bc
       -0.021031959 -0.0024906532 -0.02522794 -0.012994191
000020 59 d5 70 3b 02 1c ac 3c b9 74 c0 3b 6b 46 d1 bc
       0.003674826 0.021009449 0.0058732894 -0.025546273
000030 a4 a6 d8 bc 29 e6 8a 3c 1b 02 52 3c 41 5c fa bc
       -0.026446648 0.016955452 0.012817885 -0.030561568
000040 a6 e8 1f 3b b0 0d 61 bc 5c 92 27 bd 97 08 6e bc
       0.0024400144 -0.0137361735 -0.040911064 -0.014528415
000050 48 a9 00 3d 54 2a 6a 3b db 97 16 3d 8c 22 ab 3c
       0.03141144 0.0035730796 0.036765914 0.020890497
000060 15 21 55 3a 04 71 1e 3d e2 fa df bc 5e 7e 26 3d
       0.0008130235 0.038682 -0.02734131 0.040647857
000070 f0 fa 0a 3d b1 d5 02 bd 41 cc de bc 93 a1 10 bd
       0.03393072 -0.031942073 -0.027197005 -0.03531034
000080 fe 0b 0c 3d b1 ac da 38 79 2a be bc 4f 02 20 3d
       0.034191124 0.00010427216 -0.023213612 0.0390647
000090 bc f5 08 3d 18 26 c0 3c 9d b0 16 bd 22 60 ae 3c
       0.033437476 0.023455665 -0.036789525 0.021286074
0000a0 cf 47 03 bc 2d 4a b6 bc 20 74 e2 bc 20 d5 53 3c
       -0.008012726 -0.022252167 -0.027643263 0.012929231
0000b0 7b 7d 08 3d de 3b 16 bd 9d 93 aa 3a 5e 7a d4 bc
       0.033322793 -0.036678188 0.0013013963 -0.025937255
0000c0 65 5f 7a 3c bf cf fd 3c a2 88 06 3c 47 38 27 bc
       0.015281533 0.03098285 0.008211287 -0.010206289
0000d0 64 3f a0 3c 8a b4 15 bd 10 66 7e 3b 0a 6d 1c bd
       0.019561477 -0.03654913 0.0038818158 -0.038189925
0000e0 e5 ac a0 3c 08 69 88 bc 10 2a 8e bc 9f 74 01 3d
       0.019613693 -0.016651645 -0.017354041 0.03160536
0000f0 ee 94 d1 bc 10 8e d8 3b 3a d0 85 3c 56 dd 0c 3d
       -0.02558371 0.006608732 0.016334642 0.03439077
000100 83 6b cb 3c aa a2 bb bc 2a c6 f9 3b 19 f3 dc bc
       0.024831539 -0.022904713 0.0076225 -0.026971387
000110 8e 61 17 3d 9c 40 df 3b eb 42 da 3c 4a e7 43 bb
       0.03695827 0.006813122 0.026643237 -0.0029892498
000120 a8 02 95 3b 09 89 a4 bc 43 34 0d bd 2e 3b b6 bc
       0.004547436 -0.020084875 -0.03447367 -0.022245016
000130 48 6c c3 3c 58 e9 e2 bb ec 61 c6 bc a2 ad a2 bc
       0.023855343 -0.0069247894 -0.024216615 -0.019858185
000140 69 19 06 bd 2e 68 16 bd 2a 21 92 3c 7d 5e 1c bd
       -0.032739077 -0.036720447 0.01783808 -0.03817605
000150 4f 17 2a bd 68 7b 17 bd 6e 8a 14 bc ac f9 ae 3c
       -0.041526135 -0.036982924 -0.009066207 0.021359287
000160 92 be e6 3c 95 ed d3 3b 8a fd 14 bd c5 48 bc bc
       0.028167043 0.006467531 -0.036374606 -0.022983918
000170 6b 46 22 3d a4 83 1e bc 63 11 e3 bc b8 e4 0e bd
       0.039617937 -0.00967494 -0.027718252 -0.034886092
000180 95 11 3a bc 39 eb e7 3c 71 20 43 bc 78 f3 8b 3c
       -0.011356731 0.028310405 -0.01190959 0.017083868
000190 6d a0 51 bc 4c 54 8e 3c 24 c8 9d bc 26 fa cc bc
       -0.012794596 0.01737418 -0.019260474 -0.025021624
0001a0 8a f3 e6 3c 40 8e ed 3c 95 88 16 3d 3d 50 e6 bc
       0.0281923 0.028998494 0.03675135 -0.028114432
0001b0 27 97 4c 3c 63 31 51 bc 6a 48 4f bc 94 4f 16 3c
       0.012487209 -0.012768122 -0.012651542 0.009174246
0001c0 c5 e6 e3 3c 54 43 b5 bc a6 7e 77 3c e0 0b e2 bc
       0.02782 -0.022126831 0.015105879 -0.027593553
0001d0 d7 97 21 3d 61 3e 1d bd d1 2a a6 3c 92 de 42 3c
       0.039451446 -0.038389567 0.020284088 0.011893885
0001e0 5d 8b ab 3b b1 00 b4 3c 85 7b f7 bb 1a 95 06 bb
       0.0052351193 0.021972986 -0.0075525665 -0.0020535649
0001f0 43 71 19 bd 1e e1 de 3c 39 53 96 3c 2f 39 28 bd
       -0.03746153 0.027206954 0.01835023 -0.04107016

classifier.7.weight f4 [128]
000000 53 cd 82 3f 63 4c 81 3f 9d f0 83 3f 06 e6 7f 3f
       1.021891 1.0101436 1.0307804 0.9996036
000010 75 73 83 3f 8e 15 84 3f a3 e6 83 3f fa b6 83 3f
       1.026961 1.0319078 1.030476 1.0290215
000020 ee 47 83 3f 70 46 83 3f 33 87 82 3f 25 d9 82 3f
       1.0256326 1.0255871 1.019751 1.0222517
000030 52 78 82 3f d4 6e 83 3f 74 27 83 3f 42 f9 83 3f
       1.0192969 1.0268197 1.0246415 1.0310442
000040 37 36 84 3f 6b 5a 85 3f 17 4e 83 3f 90 a7 81 3f
       1.0329045 1.0418218 1.0258206 1.0129261
000050 92 c9 81 3f 3a 77 81 3f 7e 35 84 3f 98 65 83 3f
       1.0139639 1.011451 1.0328825 1.0265379
000060 77 63 80 3f 51 eb 83 3f 77 3a 81 3f 87 0a 7f 3f
       1.0030354 1.0306188 1.0095967 0.9962544
000070 f6 46 82 3f 70 ce 82 3f 24 5d 83 3f 10 2f 82 3f
       1.0177906 1.021925 1.0262799 1.0170612
000080 ee 16 84 3f 4a 73 82 3f 9e cd 80 3f 18 7f 83 3f
       1.0319498 1.0191433 1.0062749 1.0273161
000090 45 1e 83 3f 9a fe 84 3f 99 bc 82 3f aa fe 83 3f
       1.0243613 1.0390198 1.0213805 1.0312092
0000a0 3c c1 82 3f d8 64 82 3f ed 4d 84 3f 5e 24 81 3f
       1.021522 1.0187025 1.0336281 1.0089223
0000b0 9d 1c 84 3f a8 0a 81 3f dd c7 81 3f 02 59 83 3f
       1.0321232 1.0081377 1.0139118 1.0261538
0000c0 a4 50 81 3f 61 80 82 3f ab be 83 3f e2 9a 84 3f
       1.0102735 1.0195428 1.0292562 1.0359766
0000d0 f4 3c 82 3f c9 10 83 3f d3 4e 83 3f 0a 1b 80 3f
       1.0174851 1.0239497 1.025843 1.0008252
0000e0 da 04 82 3f bc f1 83 3f df 12 84 3f 0e cb 81 3f
       1.015773 1.0308146 1.0318259 1.0140092
0000f0 af 71 81 3f 07 0e 82 3f 97 5c 81 3f e4 bb 83 3f
       1.0112818 1.0160531 1.0106381 1.0291715
000100 31 9d 81 3f 91 0a 82 3f aa a1 83 3f e8 52 83 3f
       1.0126096 1.0159475 1.0283711 1.0259676
000110 af 15 85 3f a0 2e 85 3f 71 35 83 3f 1f f3 84 3f
       1.0397242 1.0404854 1.0250684 1.0386695
000120 47 12 84 3f ad 19 80 3f 5d 93 82 3f 55 0d 82 3f
       1.0318078 1.0007836 1.0201222 1.0160319
000130 87 ea 82 3f 7b b9 82 3f bd 6d 81 3f 21 e1 81 3f
       1.0227822 1.0212854 1.0111614 1.0146829
000140 55 0a 83 3f 5a 7f 81 3f e9 ac 80 3f d0 ac 80 3f
       1.0237528 1.011699 1.0052768 1.0052738
000150 ea 9a 84 3f d0 21 82 3f b2 74 83 3f bb bd 81 3f
       1.0359776 1.0166569 1.0269988 1.0136026
000160 a6 60 83 3f 26 cd 81 3f d2 80 82 3f ac 28 83 3f
       1.026387 1.0140731 1.0195563 1.0246787
000170 bb 1e 83 3f f5 ca 81 3f 60 51 82 3f 60 28 83 3f
       1.0243753 1.0140063 1.0181084 1.0246696
000180 0c bd 84 3f a9 6f 85 3f 32 4b 84 3f a2 2b 84 3f
       1.0370193 1.0424701 1.0335448 1.0325816
000190 85 f5 84 3f 02 76 81 3f 36 73 82 3f 5c 1e 85 3f
       1.0387427 1.0114138 1.019141 1.039989
0001a0 01 7f 82 3f 4d 47 81 3f c3 e2 82 3f ad b7 83 3f
       1.0195009 1.0099884 1.0225452 1.0290428
0001b0 9f 1c 83 3f e7 c9 82 3f 55 84 84 3f 8d 47 83 3f
       1.024311 1.0217866 1.0352885 1.025621
0001c0 39 2c 84 3f c4 c5 83 3f 44 22 83 3f 38 9e 84 3f
       1.0325996 1.0294728 1.0244832 1.0360785
0001d0 98 90 81 3f 81 37 83 3f a6 03 82 3f 32 ff 83 3f
       1.0122252 1.0251313 1.0157363 1.0312254
0001e0 3c f9 85 3f db a2 82 3f 32 de 83 3f 5b 6e 84 3f
       1.0466685 1.020595 1.0302184 1.0346178
0001f0 dc 05 83 3f 36 7a 82 3f 06 b9 81 3f 06 89 82 3f
       1.0236163 1.0193546 1.013459 1.0198066

classifier.7.bias f4 [128]
000000 a5 b5 93 3c 88 da 8f 3b e2 db 90 3c a6 c4 da bb
       0.01803095 0.0043900646 0.017682973 -0.0066762744
000010 34 07 84 3c 15 58 7a 3c 87 f9 21 3c ea 6e 64 3c
       0.016116716 0.015279789 0.009886152 0.01394246
000020 72 5c 93 3c 75 77 69 3c 20 1b 81 3c b0 20 89 3c
       0.017988417 0.014249672 0.015760005 0.01673922
000030 9e 88 63 3b d9 b7 99 3c 67 40 40 3c 55 48 4c 3c
       0.0034718881 0.018764423 0.011734105 0.012468417
000040 b2 b2 82 3c bc 13 a3 3c 93 7d 00 3c 68 84 67 3c
       0.01595435 0.019906871 0.007842439 0.014130689
000050 9a cf 9a 3b a3 57 d7 3a 9f 86 9a 3c 72 74 72 3c
       0.004724455 0.0016429316 0.01886302 0.014798271
000060 5c 5b 99 3b 13 bc c9 3c ee 22 64 3b d1 70 ca bb
       0.0046800803 0.024625814 0.0034810859 -0.0061779995
000070 bb 97 7b 3b 37 fd ab 3c d5 02 40 3c 28 8a 35 3c
       0.003839 0.020994766 0.011719425 0.011080302
000080 dc 63 8e 3c 5d 04 89 3c 30 41 ba 3a a5 7f 83 3c
       0.017381601 0.016725713 0.0014210101 0.016052077
000090 b8 dc 1f 3c 75 0e 9f 3c e9 ef 74 3b d4 47 8e 3c
       0.009757213 0.019416073 0.0037374443 0.017368235
0000a0 98 5f 4e 3c 18 f1 61 3c c6 ee 8d 3c b7 67 13 3c
       0.0125960335 0.013790391 0.01732577 0.0089968955
0000b0 ae 24 78 3c 86 c3 16 bb 9b c4 49 3c e9 7a a6 3c
       0.015145464 -0.0023004725 0.012314941 0.02032228
0000c0 9a 69 25 3b 63 03 a4 3b e6 0b 13 3c 3c fa 9d 3c
       0.0025239945 0.0050052865 0.008975005 0.01928436
0000d0 7f a5 f0 3b 78 22 2a 3c e5 03 2b 3c 83 5d 40 bc
       0.0073439474 0.010384195 0.01043794 -0.011741045
0000e0 5a 98 d4 3b 6f cb 64 3c 4a 43 c0 3c e4 bf 5e 3c
       0.0064878883 0.013964518 0.023469586 0.013595555
0000f0 6f 67 b4 3b 9e 85 2c 3c 4a a3 34 3c 2c b8 88 3c
       0.0055054943 0.010529904 0.011025259 0.016689382
000100 fb d0 54 3c a8 53 7e 3c e6 22 90 3c e8 38 98 3c
       0.012989278 0.015522875 0.017594766 0.018581823
000110 7b 98 96 3c 77 22 9c 3c 96 e4 11 3c 5f 7a 8a 3c
       0.018383255 0.019059403 0.008904597 0.016904054
000120 a9 75 81 3c 71 8e 45 3a fe ce 55 3c ae dd 25 3c
       0.015803175 0.0007536179 0.013049839 0.010123653
000130 81 bc 8f 3c 23 8d f4 3b f6 64 df 3b f0 9a c8 3b
       0.01754594 0.007463114 0.0068174554 0.0061219856
000140 9d fe 1c 3c 16 bc 28 3c 5d 5d d1 3b 8c ff 83 3b
       0.009582189 0.010298749 0.0063893036 0.0040282663
000150 fe 00 8f 3c 9f a5 33 bb 32 b8 1a 3c 3c 8f 8d 3c
       0.017456528 -0.002741195 0.00944333 0.017280214
000160 7b 9c 30 3c 6f a2 80 3b 76 8a ea 3b 14 89 23 3c
       0.010779495 0.0039256136 0.007157619 0.009981412
000170 1b 4e 59 3c c1 24 77 3c d2 b4 20 3c c8 f5 85 3c
       0.013263251 0.015084446 0.009808736 0.01635255
000180 da c4 9b 3c 65 92 ae 3c 69 87 86 3c 30 31 5a 3c
       0.019014765 0.02131004 0.01642199 0.013317391
000190 9b 50 83 3c 2a ba fc 3b e6 dd 25 3c c3 3d 65 3c
       0.016029647 0.007712622 0.0101237055 0.013991776
0001a0 91 4d 5f 3c e9 c7 24 3c 54 e0 55 3c a0 24 44 3c
       0.013629333 0.010057428 0.013053972 0.011971623
0001b0 d7 6d 6d 3c d3 b7 fd 3b 00 f4 8f 3c 5c b4 82 3c
       0.01449152 0.007742861 0.017572403 0.015955143
0001c0 42 0c 6d 3c a0 bd 33 3c 49 43 d3 3b 12 d9 b9 3c
       0.0144682545 0.010970503 0.00644723 0.022686515
0001d0 8c dd c3 3b 91 ea 67 3c c0 19 fc 3b a3 96 49 3c
       0.005977338 0.014155046 0.0076934993 0.012303981
0001e0 8a 90 cf 3c 35 db a6 3c ed 6b 46 3c bb c0 8a 3c
       0.025337476 0.020368198 0.012110692 0.016937604
0001f0 77 17 9b 3c e8 93 1c 3c da b9 00 3c 14 9e 54 3c
       0.018932087 0.009556748 0.00785681 0.012977142

classifier.7.running_mean f4 [128]
000000 d5 b4 e9 3e c3 e2 2d 3e 3c 3c 1d bc 25 2f da ba
       0.45645776 0.16981034 -0.0095968805 -0.001664613
000010 a0 12 96 3d 76 77 21 be ad 6c 04 3e 3b 33 f3 be
       0.07327771 -0.15768227 0.12932082 -0.47500023
000020 3d 7c 89 be 06 9f 9c 3e b7 d1 f4 bd 71 d9 9c be
       -0.268526 0.30590075 -0.119540624 -0.30634645
000030 06 c0 b2 be c0 6b fa bd b0 9d 98 bb 89 ef 42 be
       -0.34912127 -0.12227583 -0.0046574697 -0.19036688
000040 5f 02 e1 3b a7 03 fa 3d d0 2f 01 bf 3d 07 10 3c
       0.0068667377 0.12207728 -0.5046358 0.008790788
000050 f6 fa ca 3c eb 37 ac 3e eb 40 e4 3d ba f0 9a 3e
       0.02477787 0.33636412 0.111451946 0.30261785
000060 cf ee 79 bc 6e e7 d2 be 2c 59 a6 bd ee a4 49 3e
       -0.01525469 -0.41192192 -0.08122477 0.19691822
000070 15 5d fd be 1e 89 c8 3e c8 41 ba 3d 53 71 ac 3d
       -0.49485078 0.39167112 0.09094578 0.084200524
000080 92 dc ac be 25 d3 87 be eb e4 a5 bc 8f 2a 4b 3e
       -0.33762032 -0.26528278 -0.020250758 0.19840454
000090 2f d8 73 be b9 17 49 3e a4 b8 b9 be b0 90 5d bb
       -0.23812936 0.19637956 -0.36273682 -0.0033808164
0000a0 48 eb be 3e d1 d6 7d 3e 4d b1 88 bc 6f 4b 66 be
       0.3728888 0.24788977 -0.016686106 -0.22489713
0000b0 89 a0 75 be 15 5d 54 3e e1 2a c4 3d a1 85 75 3b
       -0.2398702 0.20738633 0.09578491 0.0037463682
0000c0 46 38 af 3e c3 0e 89 bd a6 90 e5 3d 0b 7c 8c 3e
       0.3422262 -0.06692269 0.1120923 0.27438387
0000d0 f2 02 92 3e 04 91 ad be 57 a6 f6 be 97 e5 bc 3e
       0.28517872 -0.338997 -0.48173782 0.36893913
0000e0 cc 4f b0 be 88 c5 93 3e 32 2e 80 be ed a7 b1 be
       -0.3443588 0.28861642 -0.25035244 -0.3469843
0000f0 19 f3 c3 be 6b 2b 26 3e 71 fe b1 3e 9f f6 8b be
       -0.38271406 0.162275 0.34764436 -0.27336594
000100 f6 04 dd bc 60 f5 8f bd b7 ff 52 be 21 b9 64 be
       -0.026979905 -0.070292234 -0.2060536 -0.22336246
000110 fa ed 89 3d 82 c7 d9 3d 44 fc ab be 0e a1 35 3e
       0.067348436 0.10633756 -0.335909 0.17737219
000120 d5 b4 8a be 53 6a a6 3e 42 32 bf be 6c 30 74 3e
       -0.2709109 0.32502994 -0.3734303 0.23846596
000130 c4 08 25 3d 8a 97 02 bf 54 5e 37 be 6f 9a 84 be
       0.040291563 -0.5101248 -0.17907077 -0.25899073
000140 eb f1 aa 3d 3e 8f 01 3d 25 22 0a 3e 43 25 ac 3e
       0.083469234 0.031630747 0.13489588 0.33622178
000150 ce 2d 62 3e 62 8b 01 3f 3f 64 f4 be 17 27 6b be
       0.22087786 0.50603306 -0.47732732 -0.2296413
000160 f8 ed a7 3e 7f da 88 3d 3d 4d f2 be 2c 56 04 bf
       0.32798743 0.066823 -0.47324553 -0.5169399
000170 70 26 d8 be ee b6 b4 bd 38 a4 b3 be 01 52 fe be
       -0.42216825 -0.088239536 -0.35086226 -0.4967194
000180 ea b4 1b 3d 9f 03 85 bd bd 46 82 3e ca 93 06 3e
       0.03801433 -0.06494831 0.25444594 0.13142315
000190 09 5d 24 3e 1f 6c ed 3d 4c f2 ea be ab 99 2e 3e
       0.16051115 0.11592888 -0.45887983 0.17050807
0001a0 b4 88 9a 3e 1e d2 6b 3e 31 af 83 be 9b a6 e0 3d
       0.3018242 0.23029372 -0.25719598 0.109692775
0001b0 ca 64 02 be 96 8a ae be cc 89 03 3e 3a d8 db be
       -0.1273376 -0.34090108 0.12845534 -0.42938405
0001c0 52 f1 28 3d 22 65 a1 be cc 1d d3 be fb 3f a9 be
       0.041245766 -0.3152247 -0.4123367 -0.33056626
0001d0 f6 d4 da 3e 09 42 ab be b0 56 a7 3e 5e ea 6b 3e
       0.427406 -0.33448818 0.32683325 0.23038623
0001e0 b9 46 b9 bc 3f ee ab 3e d1 74 5d 3e 0d b9 e6 3d
       -0.022616731 0.33580205 0.21626593 0.112657644
0001f0 dd 1d b0 be 81 9d 0a 3e 1d d6 75 3e 9e 6d b0 3c
       -0.34397784 0.13536645 0.24007459 0.021536645
